saves/best_model.pth (torch, 983633 bytes, 20 tensors)

linear_relu_stack.0.weight f4 [512, 145]
0.0013860743 -0.18834119 0.060348857 0.45779824 -0.2546663 -0.15194795 0.25374332 0.6347137
0.04511574 -0.6976618 -0.10037841 0.38749284 -0.018197317 0.0247252 0.19842423 0.5461523
-0.28751996 -0.18906778 -0.31216824 -0.5510358 -0.3685186 -0.44566226 -1.47051 0.7123891
-0.35130927 0.1890141 0.58865553 -0.303309 0.066834494 0.3952871 -0.45989114 -0.88635564
-0.22912318 0.29137212 -0.23796952 -0.645195 0.0076547 0.59611374 0.6018229 -0.27541056
0.3758612 -1.1672103 0.18673187 -0.39835012 -0.40541157 -0.52688545 -1.2216811 -0.86143863
-0.1648145 0.14007309 0.18198748 -0.07613698 0.90064013 -0.43438715 0.16903716 -0.47530395
-0.51773965 -1.8199456 -0.5040859 -0.9971683 -0.10879443 0.10938932 0.2434472 0.45290068
-0.48691547 -0.03906817 -0.26284868 -0.013466695 0.079212636 0.1574569 0.04438392 0.54905444
-0.039255127 0.5102475 0.6677799 -0.07512702 -1.0424552 0.23548935 0.12769282 -0.18763804
-0.15810381 0.40877974 0.73377675 -0.82739997 0.043255214 -0.31799215 -0.17127962 -0.095123716
0.7226004 1.1962003 -0.19106404 0.09864309 0.2042813 0.074554056 0.3030544 -0.15353827
0.12053026 0.040356837 0.0074321176 0.021866178 0.036904357 0.14412439 -0.60087407 -0.5625325
-0.34331483 0.0952073 -0.20181318 0.5580544 0.51583487 -0.07718703 -0.24190971 0.10402816
0.07977823 -1.1522678 0.57210004 -0.5169871 -0.62374246 -0.69371516 -0.97943 -1.5566235
-0.09860747 0.2983091 0.26810363 -0.05979387 0.5526109 -0.10783037 0.77497023 0.042549945
-0.5400074 1.2098706 0.49395674 0.27976352 -0.7033734 1.5514715 1.5564665 1.4434406
1.5467798 1.4125288 -0.6282527 -0.25635412 -1.1542468 0.5330305 -0.1398024 -0.07024815
-0.49841878 0.37455857 0.32165426 0.014152885 1.1143416 -0.011999506 0.12769225 -0.28888825
-0.19529687 0.25628206 0.12762684 -0.4224191 0.6559887 0.6498641 0.37490693 0.042342618
1.1496439 -0.07291558 0.2787311 -0.47428972 -0.53026986 -0.15341371 0.8654932 1.3473845
0.33038926 -0.1242615 -0.005345814 0.13999848 -0.49908403 0.34342602 0.80871713 0.079533964
0.38291857 0.2140532 0.9546839 0.5448176 -0.12171705 -0.5590309 -0.40745643 0.2009145
-0.95989114 -0.44270638 -0.20648 1.4268279 -0.17940962 -0.7183779 -0.02619417 -0.77648705
0.24954721 -0.04292523 0.3048312 0.114481464 0.14763805 0.0039028572 -0.28575805 -1.4159241
-0.29672146 0.029278819 -2.1779127 2.6769297 0.6891144 -0.11771628 -0.74768907 -0.5492994
0.55004394 0.16881396 -0.26335868 -0.039891906 0.5057726 0.4990235 -0.3343559 -0.0067250743
-0.3968701 -0.22225416 0.10915087 0.25494853 -0.4108137 0.61475337 -0.050088488 -0.10492941
0.20411484 0.10733636 -0.35680798 0.05129082 0.74096966 0.25752497 -0.83716714 -0.8862985
-1.1662284 1.2672368 0.694346 0.1659526 -0.13384812 -0.23904656 -0.32404914 -0.17656635
0.18685533 -0.086915135 -0.07281195 -0.10398526 0.35287505 0.124999754 0.20365031 -0.37481683
0.45671317 0.48088434 -0.5240403 -0.067620024 0.05435244 0.49722937 -0.1486717 -0.19971219
00000000: f0ac b53a 83dc 40be 5d30 773d 8864 ea3e
00000010: 9f63 82be 3e98 1bbe a5ea 813e 997c 223f
00000020: 48cb 383d f799 32bf 3293 cdbd 7665 c63e
00000030: 8a12 95bc 818c ca3c b92f 4b3e a3d0 0b3f
00000040: d135 93be fc9a 41be 84d4 9fbe af10 0dbf
00000050: 78ae bcbe d82d e4be ac39 bcbf 225f 363f
00000060: cfde b3be ea8c 413e 21b2 163f 514b 9bbe
00000070: 86e0 883d 1263 ca3e da76 ebbe 34e8 62bf
00000080: 449f 6abe ba2e 953e 48ae 73be 802b 25bf
00000090: 47d4 fa3b e99a 183f 1111 1a3f 9d02 8dbe
000000a0: e170 c03e 2667 95bf a436 3f3e 8cf4 cbbe
000000b0: 1b92 cfbe f7e1 06bf 0c60 9cbf 3e87 5cbf
000000c0: 22c5 28be 526f 0f3e ed5a 3a3e b4ed 9bbd
000000d0: 5a90 663f fe67 debe 1418 2d3e 0a5b f3be
000000e0: 968a 04bf faf3 e8bf c60b 01bf 6c46 7fbf
000000f0: 9dcf debd 8207 e03d 394a 793e 99e2 e73e
00000100: fc4c f9be f205 20bd 1a94 86be 6aa3 5cbc
00000110: 3c3a a23d 623c 213e eacb 353d d58e 0c3f
00000120: fcc9 20bd 959f 023f a0f3 2a3f 32dc 99bd
00000130: 2c6f 85bf 1f24 713e e8c1 023e 3024 40be
00000140: f7e5 21be 944b d13e cbd8 3b3f 7cd0 53bf
00000150: 612c 313d decf a2be ed63 2fbe 39d0 c2bd
00000160: 57fc 383f 171d 993f 4ba6 43be 6305 ca3d
00000170: 1e2f 513e ccaf 983d f229 9b3e 2339 1dbe
00000180: 92d8 f63d 364d 253d 1f89 f33b b320 b33c
00000190: 0629 173d 5895 133e e2d2 19bf 2102 10bf
000001a0: f6c6 afbe 0bfc c23d 1da8 4ebe a7dc 0e3f
000001b0: c10d 043f 3c14 9ebd 2eb7 77be b70c d53d
000001c0: c562 a33d 837d 93bf 2675 123f 4459 04bf
000001d0: 96ad 1fbf 5197 31bf edbb 7abf 703f c7bf
000001e0: b7f2 c9bd f8bb 983e e144 893e 6bea 74bd
000001f0: e877 0d3f 2bd6 dcbd 7364 463f da48 2e3d
00000200: ed3d 0abf 0add 9a3f e6e7 fc3e 2a3d 8f3e
00000210: 4710 34bf 9e96 c63f 4b3a c73f a9c2 b83f
00000220: e1fc c53f becd b43f 2bd5 20bf d940 83be
00000230: 5cbe 93bf b074 083f 5c28 0fbe 43de 8fbd
00000240: bf30 ffbe 24c6 bf3e deaf a43e 81e1 673c
00000250: bfa2 8e3f 9399 44bc c2c1 023e 29e9 93be
00000260: e7fb 47be 6737 833e 9cb0 023e 5147 d8be
00000270: e0ee 273f 7e5d 263f cdf3 bf3e 746f 2d3d
00000280: 8827 933f c354 95bd d8b5 8e3e 1ad6 f2be
00000290: c4bf 07bf 7c18 1dbe f690 5d3f 1877 ac3f
000002a0: c828 a93e d07c febd f02b afbb c35b 0f3e
000002b0: f187 ffbe 89d5 af3e 1608 4f3f b4e2 a23d
000002c0: e70d c43e c330 5b3e 2a66 743f 2b79 0b3f
000002d0: ca46 f9bd a61c 0fbf 219e d0be 88bc 4d3e
000002e0: 6dbb 75bf 69aa e2be 7e6f 53be 4ca2 b63f
000002f0: 28b7 37be 9de7 37bf 2895 d6bc dbc7 46bf
00000300: 4e89 7f3e 5ed2 2fbd d612 9c3e 4275 ea3d
00000310: 6e2e 173e 14c7 7f3b e14e 92be 003d b5bf
00000320: e0eb 97be 22da ef3c ec62 0bc0 d152 2b40
00000330: cd69 303f 3c15 f1bd 8d68 3fbf e39e 0cbf
00000340: aecf 0c3f 91dd 2c3e f3d6 86be b265 23bd
00000350: 507a 013f 0280 ff3e b230 abbe 035e dcbb
00000360: 8f32 cbbe 9896 63be 7e8a df3d 9d88 823e
00000370: 2c56 d2be 7a60 1d3f 9629 4dbd 3be5 d6bd
00000380: 7b03 513e 2ad3 db3d 89af b6be 5316 523d
00000390: 30b0 3d3f 50da 833e 9650 56bf 75e4 62bf
000003a0: f946 95bf d134 a23f a9c0 313f 7aef 293e
000003b0: 7b0f 09be 9fc8 74be c5e9 a5be cfcd 34be
000003c0: 0157 3f3e 9000 b2bd 6f1e 95bd 39f6 d4bd
000003d0: 0aac b43e dfff ff3d b589 503e fee7 bfbe
000003e0: 4fd6 e93e 7936 f63e 8127 06bf 5e7c 8abd
000003f0: aaa0 5e3d d994 fe3e 653d 18be 5a81 4cbe

linear_relu_stack.0.bias f4 [512]
0.031677864 0.062279027 0.043687318 -0.038362082 -0.023353301 -0.017589305 0.06529508 0.05410425
0.0062506143 0.0050342777 -0.022019388 0.049353216 0.0658279 0.0049883863 0.0008210502 -0.011181963
0.02877171 -0.0593415 0.06898048 -0.045460477 -0.004537198 0.02401756 0.016164737 -0.0043855305
-0.047866426 -0.02845023 0.010454787 0.026326448 -0.019976735 -0.0011499069 0.07095946 0.014218317
0.02390518 -0.006209354 -0.043488007 -0.015745625 0.06420294 0.07191119 -0.047362387 -0.046722133
0.023413785 -0.05252839 -0.057486393 0.010044883 0.036332622 -0.07952284 -0.04791194 0.074717894
0.021432413 -0.023680586 0.06851251 -0.044140592 0.02362312 0.067225836 -0.064727515 0.020711292
0.056623287 0.03539652 -0.005625995 0.03984501 0.058325153 0.034959845 -0.019951133 0.058860175
-0.010983091 0.0029037073 -0.04540564 0.0207234 0.049328104 0.037402034 0.0036453602 -0.05261671
-0.04134198 -0.07300555 -0.04034286 0.028268762 -0.056091797 0.0729211 -0.020138027 0.041486554
-0.05530947 0.009529372 -0.06780375 -0.009202558 0.058480043 0.059105698 0.050903004 0.0015462546
0.012535765 -0.05823991 0.0057456964 -0.054336444 0.012359546 -0.010149027 -0.013916826 -0.043795887
-0.035828654 -0.048292447 0.04944938 -0.049546633 0.004179212 0.07672198 0.041651964 0.008314031
-0.07810794 -0.05225432 0.06377862 0.030438261 0.0013535328 0.03709424 0.013123905 0.0073484676
0.016425744 0.0147085115 -0.0575719 -0.031596575 -0.0337174 0.051806 -0.021256885 0.022370467
-0.028334942 0.06903817 0.028023005 -0.032153368 -0.030389974 0.056232706 0.07394099 0.028949177
-0.07446361 0.07833996 -0.027691955 0.06313594 -0.022646565 0.0010740856 -0.0040674983 0.015605338
-0.0034005276 -1.0561831e-05 0.053486016 0.07604355 0.05426612 0.043689266 -0.049086496 0.053186726
-0.016403038 -0.079076745 0.05637443 -9.733103e-05 -0.016985469 -0.06612228 0.07044044 0.031777613
0.044126924 0.0757882 -0.03606072 -0.015980128 -0.047275804 0.027255354 -0.011695453 -0.023522472
-0.00019468655 0.05893045 -0.035096314 -0.01974681 0.004676593 -0.02045063 -0.06846478 -0.07454118
-0.071218245 0.04715148 0.037037987 -0.009643789 0.0596373 0.06670357 0.059118696 -0.020068858
0.008606125 -0.027539533 0.05383562 0.05827016 0.03238829 0.036278874 0.021518182 0.0058737067
0.057182103 -0.0057568788 -0.056497894 0.03352959 0.04150127 -0.02681478 0.022688193 -0.076865986
-0.005453554 0.058834743 -0.049413804 0.022047706 -0.027826821 -0.07364622 0.06341652 0.020576686
0.045516174 0.04104573 0.07489653 0.028912283 -0.025144646 -0.06692008 -0.03626042 0.028675046
-0.045767568 -0.056565408 0.05170786 0.076858096 -0.07295874 0.060921554 -0.006878044 0.01348285
0.067710795 -0.023425337 -0.008021092 0.05766892 0.020664945 0.06902251 0.07107674 -0.02461742
-0.012759251 -0.060638696 -0.077957466 -0.011391103 -0.06975565 0.047786366 -0.08046096 -0.07194585
0.061978232 0.022913747 -0.06862648 0.016918147 -0.051187143 -0.0012118046 0.05118034 0.030512327
-0.07840424 -0.03014245 -0.05803644 -0.0059298147 -0.014880542 -0.0055057216 -0.023135187 0.052902084
0.055959154 0.029316064 -0.08125327 -0.080461666 0.054445036 0.0150383655 0.01615364 -0.061251983
00000000: a6c0 013d 4b18 7f3d 79f1 323d 8f21 1dbd
00000010: 6c4f bfbc 7217 90bc 6db9 853d 6b9c 5d3d
00000020: f4d1 cc3b 95f6 a43b 0162 b4bc 9926 4a3d
00000030: c7d0 863d 9e75 a33b bf3b 573a 8d34 37bc
00000040: a6b2 eb3c 1310 73bd a345 8d3d c434 3abd
00000050: c7ac 94bb 79c0 c43c e96b 843c 7fb4 8fbb
00000060: 960f 44bd 7510 e9bc 8e4a 2b3c 90aa d73c
00000070: 40a6 a3bc 79b8 96ba 3253 913d f2f3 683c
00000080: ccd4 c33c d677 cbbb 7b20 32bd f8fc 80bc
00000090: d57c 833d 2d46 933d 10ff 41bd b55f 3fbd
000000a0: 44ce bf3c 0228 57bd da76 6bbd 4b93 243c
000000b0: 84d1 143d dfdc a2bd 4f3f 44bd b205 993d
000000c0: 0793 af3c cafd c1bc 4950 8c3d c4cc 34bd
000000d0: 4685 c13c b3ad 893d dc8f 84bd baaa a93c
000000e0: d2ed 673d f1fb 103d 445a b8bb 8534 233d
000000f0: 5be6 6e3d 0e32 0f3d 8f70 a3bc 5e17 713d
00000100: 6cf2 33bc 204c 3e3b 44fb 39bd 1fc4 a93c
00000110: 440c 4a3d e032 193d ffe6 6e3b 9f84 57bd
00000120: 3556 29bd ef83 95bd 8e3e 25bd e493 e73c
00000130: 83c0 65bd a857 953d 81f8 a4bc ceed 293d
00000140: 2f8c 62bd 1521 1c3c b1dc 8abd 53c6 16bc
00000150: c588 6f3d d118 723d ab7f 503d b2ab ca3a
00000160: cf62 4d3c f98c 6ebd 6546 bc3b e48f 5ebd
00000170: b17f 4a3c 1b48 26bc 6603 64bc 5163 33bd
00000180: 11c1 12bd 4dce 45bd 6f8b 4a3d 69f1 4abd
00000190: c5f1 883b 6a20 9d3d 409b 2a3d 9337 083c
000001a0: 0ef7 9fbd a008 56bd 5d9e 823d a959 f93c
000001b0: 0669 b13a 21f0 173d a605 573c 6acb f03b
000001c0: 488f 863c f8fb 703c 83d0 6bbd 696b 01bd
000001d0: 421b 0abd 8732 543d eb22 aebc 4542 b73c
000001e0: ae1e e8bc e263 8d3d 8090 e53c 40b3 03bd
000001f0: 65f4 f8bc 4454 663d 606e 973d d326 ed3c
00000200: 6180 98bd b370 a03d 3dda e2bc 6a4d 813d
00000210: 4a85 b9bc 55c8 8c3a a648 85bb 88ad 7f3c
00000220: 63db 5ebb b832 31b7 2714 5b3d b9bc 9b3d
00000230: 2746 5e3d 84f3 323d ec0e 49bd 53da 593d
00000240: aa5f 86bc fdf2 a1bd e0e8 663d 331e ccb8
00000250: 1c25 8bbc 1e6b 87bd 1443 903d 3e29 023d
00000260: 6fbe 343d d836 9b3d 68b4 13bd c2e8 82bc
00000270: 46a4 41bd 9f46 df3c 499e 3fbc 33b2 c0bc
00000280: c624 4cb9 0e61 713d 27c1 0fbd 10c4 a1bc
00000290: 1b3e 993b 1488 a7bc 4337 8cbd 0ca9 98bd
000002a0: dfda 91bd e921 413d 25b5 173d fc00 1ebc
000002b0: 3e46 743d e29b 883d 7226 723d 7267 a4bc
000002c0: b400 0d3c 969a e1bc bd82 5c3d b1ac 6e3d
000002d0: 95a9 043d 2899 143d e646 b03c 3978 c03b
000002e0: c837 6a3d 33a4 bcbb 566a 67bd 5356 093d
000002f0: 3cfd 293d abaa dbbc 97dc b93c ea6b 9dbd
00000300: bab3 b2bb b3fc 703d 2166 4abd 649d b43c
00000310: 13f5 e3bc d4d3 96bd 85e0 813d 7090 a83c
00000320: 2b6f 3a3d 911f 283d 5a63 993d 74d9 ec3c
00000330: 25fc cdbc 650d 89bd ce85 14bd eee7 ea3c
00000340: c676 3bbd 21b1 67bd 9fcb 533d c767 9d3d
00000350: 646b 95bd e188 793d 3761 e1bb 2ce7 5c3c
00000360: f5ab 8a3d 7ee6 bfbc e66a 03bc 3f36 6c3d
00000370: 8849 a93c ac5b 8d3d af90 913d 79aa c9bc
00000380: 2d0c 51bc 4860 78bd 2aa8 9fbd c0a1 3abc
00000390: 0ddc 8ebd a3bb 433d b7c8 a4bd 5958 93bd
000003a0: e3dc 7d3d 9cb5 bb3c 0a8c 8cbd ed97 8a3c
000003b0: 9ca9 51bd 6ad5 9eba 7aa2 513d fdf4 f93c
000003c0: 6792 a0bd 4ded f6bc 9eb7 6dbd e44e c2bb
000003d0: 84cd 73bc 5769 b4bb 0186 bdbc dbaf 583d
000003e0: 6d35 653d 3e28 f03c 1d68 a6bd 16c9 a4bd
000003f0: c201 5f3d 7a63 763c a354 843c 5ce3 7abd

linear_relu_stack.1.weight f4 [512]
1.275725 0.9334649 1.1055876 1.1125625 0.9477278 0.91568774 0.816978 1.0752959
1.0656286 1.3919548 0.88507175 1.0308597 1.2271336 1.2024665 1.0889394 1.1359003
1.0026402 1.0452676 0.8420497 1.1387048 1.035979 0.9808441 1.6965398 0.94542825
1.0387226 1.0934718 1.1807181 1.1412363 0.7932669 1.0025731 1.3849367 1.2250749
1.1153667 0.99578166 1.0340772 1.0429866 1.4739047 1.062972 0.9175264 1.2046596
1.0919316 1.1054902 1.1237762 1.0047637 1.5567967 1.6090714 0.99369794 1.015373
1.1907628 0.8630965 1.1294937 0.99933106 1.0597756 0.73984885 1.1575634 1.1861439
1.0165831 1.1121743 1.1548958 0.9923718 1.1820568 1.1756843 1.2178254 0.86616796
1.2107726 1.0967003 1.1117415 1.2697439 0.9026424 1.0842977 1.5951627 1.129607
1.1637521 1.4054625 0.9337622 1.1438524 1.3880798 1.1017628 1.0295593 1.2349999
1.1232154 1.3258363 1.7914462 0.988043 0.8858252 1.0617106 1.2561051 1.0262765
1.3270856 1.1110173 1.5184269 1.5152187 1.0545425 1.1530411 0.88392544 0.93467295
0.6782303 1.3373071 1.0144583 1.0665677 0.9766197 1.5202651 0.9051759 1.0584344
1.0709474 0.9277265 0.91727555 0.96078813 0.9200431 0.9894456 1.1525341 0.94028044
1.2166783 1.0814263 1.3072922 1.1808963 0.9811004 1.178457 1.0923934 1.188869
1.029389 1.0479861 1.0924138 1.4082441 1.2980921 1.3221678 1.1607233 1.2493365
1.3224608 1.1200476 1.437155 1.311951 1.2432921 1.1219677 1.0726237 1.1069058
1.0499189 0.94134957 0.9810104 0.86909705 1.0482816 1.0395592 1.4684689 1.3621707
1.1848649 1.0166274 0.80114645 1.6669097 1.0639025 1.0918581 0.784208 0.9041285
1.1918381 1.4094062 1.0382195 1.1228709 1.250042 0.8096876 1.1085713 0.9910431
1.117556 1.0683069 1.0336875 1.1402208 1.2269078 1.2110516 0.9448751 1.2983233
1.2270408 1.2675706 0.994342 1.3655128 1.2685963 0.78166 1.9022113 0.9192064
1.1083583 1.0336556 1.1776769 0.94749975 1.0869775 1.1188743 0.7043543 1.1777515
0.99807113 0.9794337 1.0338876 1.3556654 1.0065901 1.0169014 1.1946232 1.0686336
0.93415606 1.2490492 1.0340906 1.2503563 0.999079 0.9661145 0.9028424 0.89558274
1.104883 0.91511285 1.6902249 0.86280954 1.0023971 1.5045615 1.4654661 1.1130985
1.2287862 0.9252183 1.1963603 1.5613182 1.183705 1.0046506 0.99254197 1.0323969
1.0169877 1.382924 1.1588218 0.950412 1.1621367 1.2599487 1.4567778 0.95558274
0.95178497 0.91320443 0.95399857 0.9294426 0.9562859 0.96042055 0.985325 0.89094216
1.09808 1.1105072 0.89644593 1.4225229 0.59273595 1.2656611 1.0793717 1.247197
0.742346 1.1649454 1.1377372 0.7829892 1.0808879 0.8907846 0.7855895 0.97658044
1.2639818 1.1369184 0.9776852 0.82038933 1.0976688 0.83062685 1.2051826 1.2691699
00000000: f54a a33f 8ef7 6e3f e583 8d3f 7368 8e3f
00000010: 4a9e 723f 836a 6a3f 7825 513f 4ca3 893f
00000020: 8566 883f 932b b23f 1094 623f 36f3 833f
00000030: b712 9d3f 6cea 993f 5e62 8b3f 2e65 913f
00000040: 8456 803f 54cb 853f 9290 573f 14c1 913f
00000050: f69a 843f 9918 7b3f 3728 d93f 9607 723f
00000060: ddf4 843f e2f6 8b3f c521 973f 0814 923f
00000070: 8a13 4b3f 5154 803f 9b45 b13f 41cf 9c3f
00000080: 56c4 8e3f 8ceb 7e3f a45c 843f 9680 853f
00000090: e9a8 bc3f 770f 883f 03e3 6a3f 4932 9a3f
000000a0: 6ac4 8b3f b480 8d3f e6d7 8f3f 199c 803f
000000b0: 1d45 c73f 0df6 cd3f fd62 7e3f bef7 813f
000000c0: ea6a 983f e4f3 5c3f 4093 903f 29d4 7f3f
000000d0: baa6 873f bc66 3d3f 0a2b 943f 90d3 973f
000000e0: 651f 823f ba5b 8e3f a0d3 933f 140c 7e3f
000000f0: a34d 973f d37c 963f b4e1 9b3f 2fbd 5d3f
00000100: 99fa 9a3f ad60 8c3f 8c4d 8e3f f886 a23f
00000110: 9313 673f 44ca 8a3f 4b2e cc3f f696 903f
00000120: d4f5 943f 32e6 b33f 0a0b 6f3f c169 923f
00000130: 99ac b13f 9006 8d3f 99c8 833f 7a14 9e3f
00000140: 86c5 8f3f 01b5 a93f 1c4e e53f 63f0 7c3f
00000150: 71c5 623f 22e6 873f 0dc8 a03f 075d 833f
00000160: f1dd a93f d135 8e3f d05b c23f b0f2 c13f
00000170: 40fb 863f da96 933f f048 623f ba46 6f3f
00000180: 80a0 2d3f e12c ab3f c5d9 813f 4a85 883f
00000190: c003 7a3f 0c98 c23f 9cb9 673f c77a 873f
000001a0: ce14 893f 7c7f 6d3f 92d2 6a3f 36f6 753f
000001b0: f287 6b3f 4f4c 7d3f 3d86 933f 38b6 703f
000001c0: 1dbc 9b3f 2d6c 8a3f 5a55 a73f 9c27 973f
000001d0: 6529 7b3f aed7 963f 8cd3 8b3f dc2c 983f
000001e0: 05c3 833f 6924 863f 37d4 8b3f 5841 b43f
000001f0: e227 a63f cb3c a93f 9592 943f 42ea 9f3f
00000200: 6546 a93f b85d 8f3f b2f4 b73f 03ee a73f
00000210: 3224 9f3f a39c 8f3f bc4b 893f 17af 8d3f
00000220: be63 863f 49fc 703f 7f23 7b3f 257d 5e3f
00000230: 172e 863f 4710 853f caf6 bb3f 9c5b ae3f
00000240: a7a9 973f d920 823f ef17 4d3f 4c5d d53f
00000250: f52d 883f 02c2 8b3f dbc1 483f f774 673f
00000260: 278e 983f 6c67 b43f 60e4 843f 3cba 8f3f
00000270: 6001 a03f b047 4f3f aae5 8d3f 00b5 7d3f
00000280: 130c 8f3f 48be 883f df4f 843f c1f2 913f
00000290: 510b 9d3f bd03 9b3f 56e3 713f 752f a63f
000002a0: ac0f 9d3f c13f a23f 338d 7e3f 20c9 ae3f
000002b0: 5d61 a23f df1a 483f a97b f33f 1c51 6b3f
000002c0: afde 8d3f d44e 843f 1ebe 963f 588f 723f
000002d0: 1422 8b3f 4637 8f3f 9050 343f 90c0 963f
000002e0: 9781 7f3f 2bbc 7a3f 6e56 843f 7286 ad3f
000002f0: f2d7 803f d329 823f 6ae9 983f fcc8 883f
00000300: da24 6f3f d8e0 9f3f 155d 843f ad0b a03f
00000310: a4c3 7f3f 4853 773f ae20 673f e944 653f
00000320: ce6c 8d3f d644 6a3f 4a59 d83f 16e1 5c3f
00000330: 8c4e 803f 7995 c03f 6594 bb3f 037a 8e3f
00000340: de48 9d3f 1bdb 6c3f 5622 993f 46d9 c73f
00000350: a583 973f 6498 803f 3b17 7e3f 9525 843f
00000360: a72c 823f a703 b13f 4654 943f 334e 733f
00000370: e5c0 943f 0046 a13f b277 ba3f 12a1 743f
00000380: 2ea8 733f c4c7 693f 4039 743f f3ef 6d3f
00000390: 27cf 743f 1fde 753f 423e 7c3f c914 643f
000003a0: e38d 8c3f 1a25 8e3f 7b7d 653f 3b15 b63f
000003b0: 8bbd 173f 2f01 a23f da28 8a3f 27a4 9f3f
000003c0: 630a 3e3f ee1c 953f 5fa1 913f fb71 483f
000003d0: 895a 8a3f 760a 643f 651c 493f 2d01 7a3f
000003e0: 28ca a13f 8b86 913f 9449 7a3f 0905 523f
000003f0: 6980 8c3f f6a3 543f 6c43 9a3f 2974 a23f

linear_relu_stack.1.bias f4 [512]
-0.5308989 -0.52060467 -0.44468462 -0.78178656 -0.083710894 -0.30894622 -0.55005616 -0.45625582
-0.26860145 -0.26053694 -0.23346272 -0.50803775 -0.46407485 -0.6228664 -0.65472853 -0.49614185
-0.2414404 -0.306614 -0.54036874 -0.6022654 -0.477165 -0.24019565 -0.63295275 -0.47461948
-0.487266 -0.23890197 -0.39649707 -0.49838182 -0.14153738 -0.31766075 -0.58186966 -0.20046389
0.0410215 -0.34144825 -0.1567911 -0.4594292 -0.5998221 -0.67589146 -0.38444623 -0.6756054
-0.31101593 -0.41336563 -0.3344228 -0.21926178 -0.9759609 -0.844397 -0.33360645 -0.72244555
-0.122626156 -0.37325487 -0.47060657 -0.4037135 -0.53197426 -0.12699766 -0.6690962 -0.34509236
-0.50252044 -0.4420877 -0.48471576 -0.037198104 -0.2665795 -0.5965753 -0.24486642 -0.4334643
-0.5668719 -0.3712146 -0.31260565 -0.46246517 -0.555358 -0.5528089 -0.48730934 -0.22968444
-0.2786074 -0.4520825 -0.54320127 -0.45709193 -0.3622675 -0.46470824 -0.29948682 -0.8230023
-0.5517194 -0.73054016 -0.55788344 -0.39535642 -0.30692098 -0.8991833 -0.36821213 -0.77755183
-0.5183208 -0.4163132 -0.61610234 -0.67252576 -0.2904951 -0.434964 -0.007033208 -0.33644518
-0.09107687 -0.24507459 -0.2977226 -0.51521856 -0.6531617 -0.7606338 -0.31074038 -0.5286015
-0.535684 -0.5798092 -0.580235 -0.4601154 -0.38891122 -0.6012801 -0.6252494 -0.66942275
-0.64825547 -0.061226483 -0.54483956 -0.46412218 -0.17514892 -0.25609863 -0.739912 -0.6719484
-0.2937508 -0.05903241 -0.65861076 -0.42262685 -0.4858926 -0.52550435 -0.39300272 -1.1774158
-0.22003777 -0.45852867 -0.73787767 -0.455509 -0.5191948 -0.5092006 -0.76736146 -0.9634309
-0.2702527 -0.51305187 -0.31288773 0.015785184 -0.4151346 -0.43793818 -0.08795712 -0.5597131
-0.55206054 -0.20579036 -0.40584365 -0.5418491 -0.5082462 -0.44544047 -0.020522734 -0.33490622
-0.45864946 -0.4091175 -0.7231222 -0.30949238 -0.5470069 -0.45606866 -0.52288413 -0.26810354
-0.5470018 -0.49642614 -0.5877885 -0.39095366 -0.69034195 -0.8779824 -0.38504082 -0.6579675
-0.6254023 -1.0446163 -0.20926578 -0.73935694 -0.5617568 -0.37191403 -0.5978238 -0.45493597
-0.43970397 -0.22924322 -0.2393213 -0.41461274 -0.6223111 -0.39308938 -0.13542803 -0.53170943
-0.40569758 -0.30410793 -0.32487145 -0.4673228 -0.43876725 -0.13038008 -0.52551395 -0.4388838
-0.32437345 -0.68042135 -0.49684778 -0.45744976 -0.6271515 -0.5392483 -0.18694136 -0.46994382
-0.4021607 -0.21862632 -0.8027615 0.15325373 -0.25785202 -0.6173946 -0.61600393 -0.5410339
-0.8733842 -0.31849462 -0.8579104 -0.90905756 -0.52778023 -0.56148636 -0.24719603 -0.6266291
-0.5205673 -0.57049406 -0.25104016 -0.030273965 -0.76812655 -0.748595 -0.29516545 -0.6199095
-0.4840112 -0.43073678 -0.4001962 -0.24989955 -0.44287157 -0.31154826 -0.4212457 -0.57990974
-0.77817214 -0.47245806 -0.52091205 -0.17831032 0.059645057 -0.016557727 -0.29013267 -0.5720069
-0.20368174 -0.7037095 -0.85163814 -0.028438916 -0.73108804 -0.27086523 -0.28007862 -0.6423183
-0.6320598 -0.3577955 -0.8745863 0.0132317385 -0.5201835 -0.136519 -0.2944634 -0.6709622
00000000: fee8 07bf 5946 05bf b4ad e3be 2a23 48bf
00000010: 9e70 abbd 332e 9ebe 7bd0 0cbf 5d9a e9be
00000020: 2186 89be 1965 85be da10 6fbe c30e 02bf
00000030: 389b edbe 2c74 1fbf 4a9c 27bf 4e06 febe
00000040: 273c 77be 83fc 9cbe 9b55 0abf 112e 1abf
00000050: f94e f4be d9f5 75be 3109 22bf 5301 f3be
00000060: ee7a f9be b8a2 74be aa01 cbbe e72b ffbe
00000070: 2def 10be 6ea4 a2be 69f5 14bf 6846 4dbe
00000080: 2906 283d 4ed2 aebe d98d 20be 4e3a ebbe
00000090: f18d 19bf 3907 2dbf 23d6 c4be 7af4 2cbf
000000a0: 7b3d 9fbe a9a4 d3be 7739 abbe 2986 60be
000000b0: 93d8 79bf 672a 58bf 77ce aabe 31f2 38bf
000000c0: 6c23 fbbd 431b bfbe 58f3 f0be 89b3 cebe
000000d0: 772f 08bf ad0b 02be e349 2bbf f2af b0be
000000e0: 2ea5 00bf 5259 e2be aa2c f8be 0a5d 18bd
000000f0: 1c7d 88be 29b9 18bf 43be 7abe 08ef ddbe
00000100: 841e 11bf d70f bebe d90d a0be 3cc8 ecbe
00000110: f12b 0ebf e284 0dbf 9c80 f9be 6632 6bbe
00000120: a1a5 8ebe 5c77 e7be 3d0f 0bbf f407 eabe
00000130: 207b b9be 3dee edbe 5656 99be 47b0 52bf
00000140: 7c3d 0dbf ae04 3bbf 73d1 0ebf 286c cabe
00000150: bf24 9dbe e030 66bf 4d86 bcbe a30d 47bf
00000160: acb0 04bf 0127 d5be e2b8 1dbf a62a 2cbf
00000170: c6bb 94be 9ab3 debe d376 e6bb 8b42 acbe
00000180: 8386 babd d5f4 7abe 196f 98be 5de5 03bf
00000190: 9b35 27bf e6b8 42bf 5d19 9fbe 6e52 07bf
000001a0: 9622 09bf 606e 14bf 488a 14bf 3f94 ebbe
000001b0: 5f1f c7be 7eed 19bf 5810 20bf 4a5f 2bbf
000001c0: 12f4 25bf 9fc8 7abd 9b7a 0bbf 6ca1 edbe
000001d0: 3d5a 33be 5c1f 83be df6a 3dbf cf04 2cbf
000001e0: 8166 96be f8cb 71bd b79a 28bf 8c62 d8be
000001f0: eac6 f8be 7487 06bf a737 c9be 90b5 96bf
00000200: 9551 61be 45c4 eabe 8de5 3cbf 7a38 e9be
00000210: f3e9 04bf f85a 02bf cd71 44bf 68a3 76bf
00000220: 905e 8abe 5e57 03bf d232 a0be ee4f 813c
00000230: 868c d4be 6f39 e0be dd22 b4bd 5c49 0fbf
00000240: d753 0dbf b5ba 52be bdca cfbe 9fb6 0abf
00000250: 6c1c 02bf c610 e4be 4b1f a8bc d478 abbe
00000260: 1ad4 eabe d977 d1be 891e 39bf c975 9ebe
00000270: a508 0cbf d581 e9be bcdb 05bf de44 89be
00000280: 4f08 0cbf 912b febe 4f79 16bf 142b c8be
00000290: 40ba 30bf 74c3 60bf 1224 c5be 8f70 28bf
000002a0: 5d1a 20bf fdb5 85bf c549 56be 7f46 3dbf
000002b0: 4bcf 0fbf 846b bebe fb0a 19bf 5eed e8be
000002c0: e120 e1be bcbe 6abe a510 75be 1f48 d4be
000002d0: c84f 1fbf 0343 c9be a5ad 0abe 1c1e 08bf
000002e0: 98b7 cfbe 09b4 9bbe 8d55 a6be ef44 efbe
000002f0: 1aa6 e0be 5b82 05be 1588 06bf 61b5 e0be
00000300: 4714 a6be 1830 2ebf d562 febe db36 eabe
00000310: 008d 20bf 2d0c 0abf 8e6d 3fbe 7a9c f0be
00000320: 02e8 cdbe 94df 5fbe c781 4dbf 8cee 1c3e
00000330: 2e05 84be 930d 1ebf 6fb2 1dbf 3381 0abf
00000340: 1b96 5fbf ba11 a3be 04a0 5bbf ffb7 68bf
00000350: 9b1c 07bf 92bd 0fbf f520 7dbe c46a 20bf
00000360: e643 05bf e60b 12bf 5688 80be 1b01 f8bc
00000370: f1a3 44bf eca3 3fbf ed1f 97be 64b2 1ebf
00000380: 51d0 f7be 8889 dcbe 84e6 ccbe abe5 7fbe
00000390: 10c0 e2be 4183 9fbe 84ad d7be f774 14bf
000003a0: 4a36 47bf 06e6 f1be 7e5a 05bf fb96 36be
000003b0: 604e 743d 12a4 87bc 458c 94be 0b6f 12bf
000003c0: f291 50be 4e26 34bf f504 5abf bbf8 e8bc
000003d0: 9628 3bbf d9ae 8abe 7766 8fbe f96e 24bf
000003e0: acce 21bf f930 b7be e3e4 5fbf efc9 583c
000003f0: bf2a 05bf a3cb 0bbe e8c3 96be 2ec4 2bbf

linear_relu_stack.1.running_mean f4 [512]
0.45356512 -0.44314 0.08144304 -0.5543799 0.10275863 0.12930386 -0.045450058 0.030073572
-0.5088939 -0.9414787 0.35853356 -0.0839788 -0.23796552 0.15982561 0.20501529 -0.3293821
-0.07040309 0.26196536 0.0055188145 0.17398478 0.025951475 -0.016566427 -0.24156158 -0.21463259
-0.34700468 0.07468475 -0.51297563 0.21497834 0.11957205 -0.031014936 -0.25182712 -0.33720127
-0.29442182 0.104773134 0.21661273 -0.1358615 -0.3280114 0.2136307 0.071857594 -0.28245983
-0.3776067 0.29767495 -0.85440683 -0.10549799 0.2587226 -0.5701153 0.045575634 0.58885276
-0.4784241 0.13091047 -0.38279796 -0.6841631 0.08337132 -0.008512251 0.3433416 0.06822197
-0.17866433 -0.3776414 -0.29883608 0.019610345 -0.11106534 -0.005355548 -0.0060347435 0.53199214
-0.037845414 -0.29265383 -0.15441486 0.46856198 0.33247614 0.045788378 -0.13994741 -0.006042995
-0.31821868 -0.38786644 -0.08628833 0.12546176 -0.57412815 0.52575314 -0.012381258 0.7335725
-0.08603144 0.016626094 0.11899022 -0.23443244 -0.06320048 0.22844172 -0.26977396 0.39280495
0.17120147 -0.17934462 -0.38382697 0.030294685 0.06046126 -0.76315194 -0.20550278 -0.20380011
0.12493032 -0.27446246 0.20465925 -0.74195415 0.09766972 0.07089969 -0.24632074 -0.21181892
-0.3900648 0.35906985 -0.13722076 0.14570169 0.27555174 0.092330895 0.16404122 0.038966008
-0.39556584 -0.16465555 -0.50184214 0.18776046 -0.27991596 -0.13305646 0.042082496 0.1303212
0.046124246 0.82148457 0.33953702 0.17424558 -0.3586206 0.15675624 0.12586589 -0.12482425
-0.127499 -0.5480415 -0.103566684 0.11257444 0.3049874 0.1794164 -0.2738563 0.28662422
0.20127036 -0.2041655 -0.3341954 0.32739416 0.21694389 0.5162574 -0.49645498 -0.027418964
-0.099247746 -0.5487722 -0.0108703 0.15579654 -0.19593352 0.52544975 0.2705688 -0.011509653
0.28225386 -0.2763147 -0.33194077 -0.059613075 -0.21725325 0.55443263 -0.5362297 -0.10867655
0.28411537 -0.23206572 -0.2626401 -0.32012138 -1.0097125 -0.12366424 -0.8290277 0.30484232
-0.4004985 0.4588403 -0.010247696 0.08237992 0.6899605 0.22019786 -0.015059974 -0.04488652
0.28648227 -0.23713295 0.21774958 0.14261982 0.09996437 0.7118117 0.35416445 0.17808418
0.1265037 -0.0968181 0.30240914 0.5049168 0.5873386 0.5837345 0.19141161 -0.13619044
0.14626339 -0.11242925 -0.27679256 -0.19370274 -0.35217032 -0.12739834 -0.22888711 0.35257927
0.42316595 0.056662444 -0.40616465 0.29080576 -0.7240271 -0.17692094 -0.021811634 -0.122812934
-0.031872883 -0.39283887 0.1611341 -0.34970596 -0.64436144 0.44900024 -0.5123532 -0.700973
0.2073452 -0.1263776 0.14337379 -0.35212812 -0.45957223 0.3001663 -0.3923762 0.029395027
-0.40058154 0.25468856 0.19152729 -0.5775824 0.33667716 -0.1411399 0.12694961 -0.55590373
-0.02829586 -0.3786484 -0.26967147 -0.35360608 -0.18397364 -0.28815907 -0.07851009 0.40780625
-0.8163498 -0.44076926 0.36898685 -0.5683823 0.45636243 -0.081450246 0.4847511 -0.30735177
0.27946195 0.54421663 -0.32027423 -0.62469286 -0.21768391 -0.102293134 -0.47103405 -0.55706686
00000000: b039 e83e 3fe3 e2be 9ccb a63d d7eb 0dbf
00000010: 1e73 d23d 3b68 043e d729 3abd da5c f63c
00000020: df46 02bf c004 71bf b691 b73e 14fd abbd
00000030: 3cad 73be 53a9 233e 87ef 513e c5a4 a8be
00000040: 7f2f 90bd 5320 863e 2cd7 b43b 1129 323e
00000050: 3098 d43c 51b6 87bc eb5b 77be a5c8 5bbe
00000060: 99aa b1be 51f4 983d 5f52 03bf 4823 5c3e
00000070: 31e2 f43d 0913 febc 7cef 80be a5a5 acbe
00000080: 75be 96be 4c93 d63d bacf 5d3e 471f 0bbe
00000090: 1cf1 a7be 02c2 5a3e 132a 933d 939e 90be
000000a0: aa55 c1be da68 983e 68ba 5abf 550f d8bd
000000b0: 4a77 843e 14f3 11bf 84ad 3a3d 0ebf 163f
000000c0: 01f4 f4be 650d 063e 18fe c3be 5025 2fbf
000000d0: 95be aa3d f876 0bbc 78ca af3e f6b7 8b3d
000000e0: c8f3 36be 375a c1be 0b01 99be e0a5 a03c
000000f0: 3a76 e3bd 987d afbb 19bf c5bb a330 083f
00000100: cb03 1bbd b9d6 95be ee1e 1ebe 5be7 ef3e
00000110: 503a aa3e 988c 3b3d 604e 0fbe 5104 c6bb
00000120: 8fed a2be 6e96 c6be f0b7 b0bd 0c79 003e
00000130: 10fa 12bf c297 063f c3da 4abc 68cb 3b3f
00000140: 4031 b0bd 7233 883c 25b1 f33d 0f0f 70be
00000150: 416f 81bd a0ec 693e d01f 8abe bb1d c93e
00000160: 704f 2f3e 1ea6 37be f884 c4be 8f2c f83c
00000170: 3aa6 773d ed5d 43bf 526f 52be fab0 50be
00000180: 78db ff3d 5886 8cbe 3292 513e b5f0 3dbf
00000190: 1007 c83d db33 913d 813b 7cbe 0fe7 58be
000001a0: 93b6 c7be 01d8 b73e 9983 0cbe d332 153e
000001b0: 1e15 8d3e fb17 bd3d 6cfa 273e d29a 1f3d
000001c0: 9b87 cabe 779b 28be ba78 00bf 4744 403e
000001d0: 2551 8fbe f43f 08be b25e 2c3d ec72 053e
000001e0: c7ec 3c3d d04c 523f ccd7 ad3e 6f6d 323e
000001f0: 1f9d b7be b584 203e fde2 003e dba3 ffbd
00000200: 198f 02be 734c 0cbf c51a d4bd 6e8d e63d
00000210: 4f27 9c3e efb8 373e e536 8cbe 69c0 923e
00000220: d119 4e3e c310 51be a91b abbe 35a0 a73e
00000230: 8a26 5e3e 7229 043f 592f febe bc9d e0bc
00000240: 6742 cbbd 567c 0cbf 5819 32bc 2189 1f3e
00000250: cca2 48be e083 063f fe87 8a3e fc92 3cbc
00000260: 9483 903e 1f79 8dbe 24f4 a9be d72c 74bd
00000270: a377 5ebe 4cef 0d3f 5a46 09bf d091 debd
00000280: 9277 913e a3a2 6dbe c378 86be f3e6 a3be
00000290: 423e 81bf ad43 fdbd 293b 54bf 4b14 9c3e
000002a0: 240e cdbe 1eed ea3e f4e5 27bc ceb6 a83d
000002b0: 40a1 303f 8c7b 613e 1cbe 76bc edda 37bd
000002c0: cead 923e fbd2 72be bff9 5e3e ee0a 123e
000002d0: 1fba cc3d 4b39 363f 0b55 b53e b35b 363e
000002e0: 308a 013e 9148 c6bd 5fd5 9a3e 3a42 013f
000002f0: d35b 163f a06f 153f 6801 443e 8275 0bbe
00000300: 12c6 153e 4e41 e6bd c1b7 8dbe 035a 46be
00000310: ab4f b4be b674 02be 6261 6abe 4585 b43e
00000320: 35a9 d83e e116 683d d0f4 cfbe 7ee4 943e
00000330: d759 39bf c32a 35be 50ae b2bc 5985 fbbd
00000340: 248d 02bd 2d22 c9be 5600 253e a90c b3be
00000350: dff4 24bf 5ce3 e53e 9429 03bf f772 33bf
00000360: 4d52 543e 2169 01be 94d0 123e 234a b4be
00000370: 0d4d ebbe 66af 993e 89e5 c8be d7cd f03c
00000380: 0619 cdbe 8a66 823e bb1f 443e 71dc 13bf
00000390: f360 ac3e fa86 10be 14ff 013e b54f 0ebf
000003a0: b8cc e7bc 34de c1be 6112 8abe db0b b5be
000003b0: 9663 3cbe 9689 93be e6c9 a0bd fbcb d03e
000003c0: 4dfc 50bf 82ac e1be d8eb bc3e 8181 11bf
000003d0: 56a8 e93e 63cf a6bd 4c31 f83e 365d 9dbe
000003e0: a315 8f3e c851 0b3f fcfa a3be dfeb 1fbf
000003f0: 88e8 5ebe 107f d1bd 602b f1be ef9b 0ebf

linear_relu_stack.1.running_var f4 [512]
158.14877 47.293114 32.935265 54.40093 66.339226 50.0279 31.458231 45.60353
96.412285 203.39421 63.85149 31.975948 450.4854 38.091667 37.12769 39.3448
67.1716 28.687624 67.31724 51.482006 56.37639 51.963707 34.117683 37.37202
37.397453 39.90161 145.38258 46.714542 63.901203 49.916107 255.57121 127.81016
88.42121 53.545155 60.122166 61.76457 167.57228 24.273554 30.09864 53.734287
30.817312 40.376774 129.56503 35.2706 64.83719 53.487965 42.832237 50.402637
68.05099 38.562176 29.014118 99.31101 35.755833 62.055325 39.79237 49.446827
66.37555 67.21432 104.39301 32.344704 36.51938 72.23188 56.417816 26.692442
39.8343 88.86524 59.578045 59.259556 36.651466 38.275352 57.44792 36.59672
122.34101 40.52013 53.761135 61.25406 51.14341 54.34475 43.60749 65.038895
85.14248 24.478516 77.23901 54.596153 43.628098 66.91042 28.98904 39.787724
64.43622 49.468998 89.04815 31.417316 25.096031 48.540436 45.874714 32.358788
32.012638 51.04252 48.96932 98.374535 69.20617 67.77637 76.238365 63.47585
65.37663 103.39077 35.541695 65.837265 61.687958 56.640736 67.85506 50.769306
50.480747 66.38503 54.318794 44.10592 81.253 106.91388 78.597275 30.67731
49.01281 115.84099 46.827362 127.64762 206.72923 135.86586 27.085592 51.104248
158.37204 30.506561 32.169254 27.693695 48.389324 58.196423 49.684837 39.34293
65.41842 184.6933 84.72907 75.74946 88.78705 40.427456 48.95778 96.11444
43.96985 53.88291 84.672935 55.695583 92.25853 69.41853 67.11351 53.069023
50.22568 150.75612 40.49856 42.012283 37.014618 55.604607 103.43723 36.94289
26.703959 46.952145 74.39048 94.138504 95.79123 38.696617 72.34199 78.315926
64.43879 237.22319 60.308216 86.069626 43.70364 34.167027 75.211555 57.42049
54.72359 52.763397 384.23575 44.74878 112.22219 48.28214 47.496895 122.83152
118.61146 41.422245 30.79121 54.517593 71.01066 38.45342 64.16583 47.352097
36.924305 60.430088 59.170944 61.429745 37.42273 67.71878 48.09892 67.24939
220.27531 48.568016 169.89484 56.78542 66.38413 43.44357 74.24373 28.713188
46.40903 102.08502 76.32242 41.228436 36.44965 34.265244 104.10778 57.323547
37.07436 48.181564 70.09822 99.815445 57.197346 69.69423 67.8921 55.83866
41.75365 60.500458 39.67011 62.101917 54.926674 49.8271 53.170135 75.77915
57.615868 102.39435 135.3505 58.52011 73.36217 47.839123 96.12328 57.764896
56.535694 72.5124 48.446033 61.973946 36.800472 65.35268 53.50726 63.635124
71.50695 70.74189 32.739727 64.35025 36.12675 44.975952 68.02508 47.0265
00000000: 1626 1e43 262c 3d42 b6bd 0342 8d9a 5942
00000010: afad 8442 921c 4842 75aa fb41 046a 3642
00000020: 17d3 c042 eb64 4b43 ed67 7f42 bece ff41
00000030: 223e e143 de5d 1842 c182 1442 1361 1d42
00000040: dc57 8642 4180 e541 6da2 8642 93ed 4d42
00000050: 6c81 6142 d6da 4f42 8278 0842 f37c 1542
00000060: fe96 1542 409b 1f42 f161 1143 b1db 3a42
00000070: d59a 7f42 18aa 4742 3b92 7f43 cd9e ff42
00000080: a9d7 b042 3d2e 5642 197d 7042 eb0e 7742
00000090: 8192 2743 3d30 c241 04ca f041 e9ef 5642
000000a0: db89 f641 d181 2142 a690 0143 1815 0d42
000000b0: a4ac 8142 adf3 5542 3654 2b42 4d9c 4942
000000c0: 1b1a 8842 ab3f 1a42 ea1c e841 3d9f c642
000000d0: f905 0f42 a738 7842 632b 1f42 8dc9 4542
000000e0: 48c0 8442 bb6d 8642 39c9 d042 fa60 0142
000000f0: d813 1242 b976 9042 d8ab 6142 1f8a d541
00000100: 5356 1f42 01bb b142 eb4f 6e42 c909 6d42
00000110: 1a9b 1242 f619 1942 acca 6542 0b63 1242
00000120: 99ae f442 9d14 2242 670b 5742 2804 7542
00000130: da92 4c42 0661 5942 126e 2e42 ea13 8242
00000140: f348 aa42 00d4 c341 607a 9a42 7662 5a42
00000150: 2c83 2e42 23d2 8542 8ee9 e741 a126 1f42
00000160: 58df 8042 41e0 4542 a718 b242 aa56 fb41
00000170: acc4 c841 6829 4242 b57f 3742 666f 0142
00000180: f10c 0042 8a2b 4c42 95e0 4342 c3bf c442
00000190: 8f69 8a42 808d 8742 0b7a 9842 45e7 7d42
000001a0: d6c0 8242 13c8 ce42 b22a 0e42 aeac 8342
000001b0: 78c0 7642 1d90 6242 cab5 8742 c513 4b42
000001c0: 49ec 4942 23c5 8442 7246 5942 766c 3042
000001d0: 8981 a242 e8d3 d542 ce31 9d42 226b f541
000001e0: 1e0d 4442 96ae e742 384f 3b42 954b ff42
000001f0: afba 4e43 a9dd 0743 4baf d841 c06a 4c42
00000200: 3e5f 1e43 700d f441 51ad 0042 b08c dd41
00000210: ab8e 4142 23c9 6842 46bd 4642 295f 1d42
00000220: 3bd6 8242 7cb1 3843 4975 a942 b97f 9742
00000230: f892 b142 b7b5 2142 c4d4 4342 983a c042
00000240: 20e1 2f42 1a88 5742 8b58 a942 47c8 5e42
00000250: 5e84 b842 4ad6 8a42 1e3a 8642 ae46 5442
00000260: 19e7 4842 91c1 1643 87fe 2142 940c 2842
00000270: f80e 1442 1e6b 5e42 dddf ce42 85c5 1342
00000280: b5a1 d541 ffce 3b42 edc7 9442 ea46 bc42
00000290: 1c95 bf42 56c9 1a42 19af 9042 c1a1 9c42
000002a0: a9e0 8042 2339 6d43 9d3b 7142 a623 ac42
000002b0: 87d0 2e42 09ab 0842 516c 9642 95ae 6542
000002c0: f5e4 5a42 b80d 5342 2d1e c043 c0fe 3242
000002d0: c371 e042 e920 4142 d2fc 3d42 bda9 f542
000002e0: 1139 ed42 61b0 2542 6654 f641 0412 5a42
000002f0: 7505 8e42 4dd0 1942 e854 8042 8c68 3d42
00000300: 7db2 1342 69b8 7142 0caf 6c42 0fb8 7542
00000310: e0b0 1542 0470 8742 4b65 4042 b07f 8642
00000320: 7b46 5c43 a645 4242 14e5 2943 4524 6342
00000330: adc4 8442 37c6 2d42 ca7c 9442 9cb4 e541
00000340: d9a2 3942 882b cc42 14a5 9842 ebe9 2442
00000350: 71cc 1142 9c0f 0942 2f37 d042 504b 6542
00000360: 254c 1442 ecb9 4042 4a32 8c42 82a1 c742
00000370: 15ca 6442 7263 8b42 c1c8 8742 ca5a 5f42
00000380: bd03 2742 7800 7242 31ae 1e42 5d68 7842
00000390: eab4 5b42 f34e 4742 38ae 5442 ed8e 9742
000003a0: a676 6642 e8c9 cc42 ba59 0743 9814 6a42
000003b0: 6eb9 9242 435b 3f42 1f3f c042 410f 6742
000003c0: 8d24 6242 5906 9142 bdc8 4142 52e5 7742
000003d0: af33 1342 92b4 8242 6f07 5642 5e8a 7e42
000003e0: 8f03 8f42 d97b 8d42 7bf5 0242 54b3 8042
000003f0: cb81 1042 60e7 3342 d70c 8842 231b 3c42

linear_relu_stack.3.weight f4 [256, 512]
0.3880682 0.37768146 0.05801198 -0.90914726 0.3554416 0.1703876 -0.4188258 0.046680823
0.41051045 -0.4799709 -0.17388672 1.1526536 -0.2136032 -0.30603838 -0.20394571 0.14661974
0.26645926 0.83665246 0.1500251 -0.27506614 -0.13778643 0.20894249 0.37208477 0.019990567
0.4365697 -1.2419503 -0.66571504 -0.0943487 -0.6330985 0.20093395 0.36988646 0.49970934
-0.2937595 0.33794945 -0.27149776 -1.1455224 -1.1037339 -0.19282547 -0.31097123 0.6880331
0.31458884 -1.9747359 0.80306804 -0.3878292 -1.2592492 -0.8628343 -0.8051717 -0.98866695
-0.051375303 -0.16735703 0.5419285 -0.276655 -0.13582811 -0.024288757 0.2961746 -0.3610117
0.44078115 -0.14408208 0.29411283 -0.68978184 -0.22996126 -0.35826758 0.08871068 -1.7101492
0.32826716 -0.89337337 0.13088413 0.807187 0.06634343 -0.4768585 -1.136174 -0.1400486
0.4199694 -0.027109347 0.8307092 0.70302594 0.16354848 0.95323867 -0.08617756 0.076751016
0.09609601 0.8853394 -0.97900647 -0.12143948 -0.19933206 -0.019260408 0.95425683 -0.7950386
-0.2857552 0.56363803 0.6849937 0.002585229 -0.35899562 0.23242049 0.29693887 -0.56107634
-0.96694136 -0.4208757 -0.2786331 -0.33947602 -1.2446644 0.18962276 -0.24733207 -0.19746672
0.6613724 0.55796593 0.5606013 0.17453913 -0.24498218 -0.87202734 -0.6815599 -0.8741386
-0.31669953 0.21507443 0.2064698 -1.1839423 -0.82820016 1.2057605 -1.6943189 -1.1452939e-06
-0.71948624 -0.7755328 0.31832895 1.3287668 0.33168733 -1.1737933 -0.5713389 -0.32709786
0.39727154 0.07725627 -0.21345717 -0.8154698 -0.37847796 -0.892256 -1.4618092 0.32534286
-0.09194446 -0.60506177 -0.026378555 0.3157659 -0.3190076 -1.7807447 0.65224195 -0.1787068
0.775683 1.093991 1.0702025 -0.2621429 -0.43677488 0.0074659204 -0.66550386 1.1051357
-0.2615989 0.24550632 0.770436 1.1082168 0.021517837 -0.05572177 0.3793793 1.0314964
0.7532275 -0.4973468 0.12613371 0.22603638 0.11092411 0.02169224 0.56125176 0.016867027
0.22114928 -1.6748786 0.33163673 -0.30885223 -0.19905724 -0.0020626395 -0.1392455 0.5445359
-0.85513824 -0.7402508 1.093532 -0.5583571 -0.07541941 -0.34823626 0.45884472 0.16644023
1.141647 0.70970666 -0.7376376 0.45291975 0.6121961 0.15041842 0.1196218 0.801217
-1.1045253 0.3098152 -0.73438275 -0.1434479 -0.14476761 -0.023129113 0.10058 -0.226209
0.20268059 0.46360892 -0.0637786 0.1001575 -0.72528815 -0.018505538 0.753221 0.52649707
0.48822507 -0.9592579 -0.73799706 -1.0445899 0.49952668 0.16058682 0.55785924 -0.30614972
0.7348968 -1.086829 0.1733894 -0.5184261 0.20900324 0.21580848 -0.036170956 -0.16657801
0.708139 0.24911766 -1.3035789 0.42268297 0.49683273 0.43996572 -1.3408847 -0.3835589
0.7845887 0.1628811 -0.441114 -0.0783525 0.595097 -0.4721747 0.03340005 -0.06914767
0.8389419 -0.6528218 0.020975167 -0.17407882 0.16430052 0.13709547 0.08931646 0.8273225
0.92420024 0.41457933 -0.14749593 0.5138748 0.14454015 0.13508658 -0.122543916 0.041430723
00000000: e0b0 c63e 775f c13e f89d 6d3d e0bd 68bf
00000010: 71fc b53e 167a 2e3e 5670 d6be 6434 3f3d
00000020: 6d2e d23e bfbe f5be 5c0f 32be 278a 933f
00000030: ccba 5abe 10b1 9cbe 25d7 50be 7c23 163e
00000040: 596d 883e db2e 563f 2ea0 193e 78d5 8cbe
00000050: e317 0dbe 05f5 553e e581 be3e 42c3 a33c
00000060: 1086 df3e 3af8 9ebf 4d6c 2abf e439 c1bd
00000070: be12 22bf a1c1 4d3e c261 bd3e e7d9 ff3e
00000080: a567 96be b607 ad3e c101 8bbe 7aa0 92bf
00000090: 2747 8dbf 0a74 45be 9f37 9fbe f022 303f
000000a0: ca11 a13e 25c4 fcbf de95 4d3f 8d91 c6be
000000b0: 142f a1bf b5e2 5cbf bc1f 4ebf 4719 7dbf
000000c0: e96e 52bd a45f 2bbe d4bb 0a3f b9a5 8dbe
000000d0: 8616 0bbe 37f9 c6bc 32a4 973e 87d6 b8be
000000e0: 11ae e13e 418a 13be f595 963e 8b95 30bf
000000f0: f77a 6bbe d96e b7be f2ad b53d 2be6 dabf
00000100: a212 a83e 1eb4 64bf 7d06 063e cfa3 4e3f
00000110: 10df 873d cc26 f4be 266e 91bf e668 0fbe
00000120: 3b06 d73e 6c14 debc 5ca9 543f 82f9 333f
00000130: 4179 273e 7307 743f dc7d b0bd a32f 9d3d
00000140: fccd c43d 9aa5 623f 2ba0 7abf 43b5 f8bd
00000150: b41d 4cbe 01c8 9dbc 2d4a 743f a687 4bbf
00000160: 814e 92be 954a 103f bf5b 2f3f f26c 293b
00000170: 46ce b7be a3ff 6d3e 5f08 983e b3a2 0fbf
00000180: 7889 77bf 057d d7be ffa8 8ebe cdcf adbe
00000190: 2a51 9fbf 782c 423e 9e44 7dbe b734 4abe
000001a0: b44f 293f dbd6 0e3f 9183 0f3f 63ba 323e
000001b0: 9cdc 7abe 2f3d 5fbf b67a 2ebf 8cc7 5fbf
000001c0: 7126 a2be 793c 5c3e d26c 533e 6c8b 97bf
000001d0: ed04 54bf 5c56 9a3f 71df d8bf 00b8 99b5
000001e0: 4030 38bf 5189 46bf 03fc a23e 0815 aa3f
000001f0: ecd2 a93e dc3e 96bf 4443 12bf 5f79 a7be
00000200: 2d67 cb3e 8938 9e3d 8494 5abe a1c2 50bf
00000210: ddc7 c1be e46a 64bf 901c bbbf 5793 a63e
00000220: 614d bcbd 54e5 1abf d717 d8bc 11ac a13e
00000230: f754 a3be 71ef e3bf 54f9 263f eafe 36be
00000240: 2993 463f e607 8c3f 65fc 883f 9837 86be
00000250: f5a0 dfbe aea4 f43b 765e 2abf 1675 8d3f
00000260: 4bf0 85be 0266 7b3e 4b3b 453f 0cda 8d3f
00000270: 2d46 b03c 833c 64bd 013e c23e 1308 843f
00000280: 84d3 403f 3da4 febe 3229 013e 1576 673e
00000290: 2e2c e33d edb3 b13c 32ae 0f3f b82c 8a3c
000002a0: f574 623e 6c62 d6bf 4acc a93e e121 9ebe
000002b0: a9d5 4bbe 592d 07bb 5f96 0ebe b466 0b3f
000002c0: 57ea 5abf 1481 3dbf dbf8 8b3f 7ef0 0ebf
000002d0: 7e75 9abd 064c b2be b2ed ea3e 4f6f 2a3e
000002e0: 7d21 923f 56af 353f d1d5 3cbf 19e5 e73e
000002f0: e2b8 1c3f 4907 1a3e 46fc f43d 8f1c 4d3f
00000300: 1661 8dbf 19a0 9e3e 8200 3cbf 02e4 12be
00000310: f63d 14be 4479 bdbc e3fc cd3d 55a3 67be
00000320: 808b 4f3e 265e ed3e 5b9e 82bd 601f cd3d
00000330: 7cac 39bf ed98 97bc 17d3 403f 83c8 063f
00000340: a3f8 f93e ed91 75bf 60ed 3cbf 1fb5 85bf
00000350: f6c1 ff3e df70 243e ddcf 0e3f a8bf 9cbe
00000360: 3222 3c3f 361d 8bbf fe8c 313e 93b7 04bf
00000370: f204 563e e6fc 5c3e ff27 14bd 6d93 2abe
00000380: 9948 353f b318 7f3e acdb a6bf e769 d83e
00000390: dc60 fe3e 3043 e13e 1ca2 abbf d561 c4be
000003a0: ceda 483f 4eca 263e b2d9 e1be 4777 a0bd
000003b0: 4758 183f e2c0 f1be 7ece 083d 4b9d 8dbd
000003c0: e5c4 563f 541f 27bf 1dd4 ab3c b841 32be
000003d0: 653e 283e c162 0c3e 8ceb b63d 68cb 533f
000003e0: 6398 6c3f be43 d43e 2c09 17be 4d8d 033f
000003f0: 5502 143e 2354 0a3e 4ef8 fabd 43b3 293d

linear_relu_stack.3.bias f4 [256]
0.012334767 0.01019528 -0.011113123 0.03475446 0.018951936 0.037767444 -0.020812612 -0.027855936
0.042706385 -0.025991425 0.016125893 0.020732477 0.017125688 -0.02569889 0.018073458 0.016120221
-0.02579763 0.005068636 -0.032952186 0.022434127 -0.018864252 0.018553834 0.00012093536 -0.0014255242
-0.037803333 0.011900013 0.03511974 -0.008783964 -0.0057494454 -0.03613963 -0.037087135 0.008723375
0.0178033 -0.040768422 -0.027357839 -0.030802848 -0.0029399942 -0.018963851 0.007275326 0.03885508
-0.040621217 -0.011713804 0.0152693475 0.01722462 0.020764062 0.025002353 0.037981395 0.021155164
0.0013743879 -0.031894796 0.012321517 0.023589619 -0.035891388 0.038907524 0.013076855 -0.004443135
-0.0317134 -0.026324727 0.011057256 -0.0097597325 0.00345867 -0.021218296 0.00080012524 0.02084551
0.02186069 -0.0319047 -0.025759554 -0.02827056 0.005269588 -0.009142783 0.016155414 0.008330478
-0.00057313585 -0.034650598 -0.04190365 -0.030548591 -0.00844144 0.036704466 0.012602284 -0.005785553
-0.028734697 0.04206041 -0.03032675 0.013651946 0.026907187 -0.028239537 0.017920112 0.01433038
-0.025965407 0.011456981 -0.04180594 0.02815966 0.014085954 0.010044758 0.018922122 0.03880009
-0.023825027 -0.008842619 -0.03527164 -0.037117958 -0.017723944 0.020323979 -0.014675681 -0.018961689
0.020800652 0.026057625 0.006196104 -0.0032954826 0.026551355 0.0065035135 -0.039460413 -0.032051552
0.012301018 -0.023900956 -0.037033148 -0.0150587745 0.02695784 0.039284848 0.0142388595 0.02846704
-0.01144844 -0.01590994 -0.018798506 0.00056908064 0.006419726 0.033834208 -0.031722076 -0.0040070247
0.031062325 -0.021832338 0.021237979 0.009130074 -0.013903305 -0.009881361 -0.020699296 -0.038283337
-0.020050086 0.039669182 -0.026026828 -0.0043697767 -0.024258425 -0.0018256105 -0.033090312 -0.030561185
0.022981342 -0.032467227 0.024117807 -0.033732377 0.014461142 0.017342528 0.0006686762 0.040962845
0.03724026 0.041828886 0.03323451 -0.039009146 -0.002308234 -0.00610718 -0.009164519 -0.029796492
0.019746238 -0.00072547933 -0.010330513 -0.0045077987 -0.04252925 -3.3839875e-05 -0.037305962 -0.016000977
-0.0074173305 -0.036476515 0.038911268 -0.02780738 -0.027489895 -0.031802796 0.030903049 0.016951444
0.025588615 -0.034441788 -0.03846264 0.04191275 0.011122106 -0.011515079 0.026204914 0.006746743
-0.03068893 0.02118762 -0.0055802264 -0.0042443876 -0.032315608 -0.027216118 0.03606086 -0.014597148
0.035636354 -0.003012498 0.019590922 0.0032064102 0.04228381 0.042648885 -0.012866686 -0.031919833
-0.039033927 0.0017670536 -0.013172042 -0.00019343093 -0.001784494 0.018269243 -0.008817891 0.005956297
-0.0063936077 -0.024287902 0.00067923433 0.024600295 -0.020862881 -0.006772476 -0.0119719375 -0.009520409
0.010360653 5.32351e-05 0.03626336 0.019241782 0.0257194 0.03101139 0.0052749994 -0.014395549
-0.00183365 -0.041438792 0.031662595 0.0121524595 -0.0035346919 0.027067678 -0.0071481043 0.020307366
0.02112493 0.024505505 -0.02589309 0.0127766915 -0.030307122 -0.0013507319 -0.008159871 0.022765663
0.03864212 -0.01776198 -0.008470461 -0.0033612766 -0.024846451 0.028084038 0.0035705552 0.028202182
0.00022366607 0.013718589 0.011869903 -0.016180884 -0.015416434 0.0356002 0.010875963 0.0051336084
00000000: c317 4a3c 1b0a 273c d113 36bc b15a 0e3d
00000010: 1741 9b3c 09b2 1a3d 367f aabc 2232 e4bc
00000020: e4ec 2e3d f8eb d4bc 731a 843c 28d7 a93c
00000030: 2c4b 8c3c 7b86 d2bc ca0e 943c 8e0e 843c
00000040: 8d55 d3bc cd16 a63b dff8 06bd c6c7 b73c
00000050: 3489 9abc 36fe 973c ad9e fd38 a8d8 baba
00000060: abd7 1abd 46f8 423c b7d9 0f3d 9eea 0fbc
00000070: d865 bcbb 2607 14bd aee8 17bd 7dec 0e3c
00000080: 3ad8 913c cafc 26bd 8c1d e0bc 4156 fcbc
00000090: ebac 40bb 145a 9bbc dc65 ee3b 8126 1f3d
000000a0: 6f62 26bd 41eb 3fbc 492c 7a3c a51a 8d3c
000000b0: 6519 aa3c bcd1 cc3c 6192 1b3d 984d ad3c
000000c0: ce24 b43a 1ea4 02bd 30e0 493c 043f c13c
000000d0: d902 13bd 7f5d 1f3d 4e40 563c b897 91bb
000000e0: e9e5 01bd f4a6 d7bc 7e29 353c 49e7 1fbc
000000f0: dbaa 623b fed1 adbc 7fbf 513a 34c4 aa3c
00000100: 3115 b33c 81ae 02bd b305 d3bc a997 e7bc
00000110: 82ac ac3b 9ccb 15bc 5c58 843c 8f7c 083c
00000120: 7f3e 16ba c9ed 0dbd 29a3 2bbd 0a41 fabc
00000130: f74d 0abc 6c57 163d cf79 4e3c bc94 bdbb
00000140: 0765 ebbc 8947 2c3d ce6f f8bc 69ac 5f3c
00000150: 766c dc3c 9a56 e7bc 33cd 923c f8c9 6a3c
00000160: 68b5 d4bc 10b6 3b3c b53c 2bbd 16af e63c
00000170: c6c8 663c c592 243c 9102 9b3c d8ec 1e3d
00000180: b42c c3bc a2e0 10bc ff78 10bd 0009 18bd
00000190: ce31 91bc 797e a63c 4472 70bc 8b55 9bbc
000001a0: 2166 aa3c cd76 d53c b008 cb3b 06f9 57bb
000001b0: 3a82 d93c 6d1b d53b 3ea1 21bd 7d48 03bd
000001c0: 368a 493c f0cb c3bc 12b0 17bd 14b9 76bc
000001d0: b0d6 dc3c 26e9 203d 1b4a 693c b633 e93c
000001e0: 3d92 3bbc 9055 82bc 53ff 99bc 5b2e 153a
000001f0: 915c d23b bd95 0a3d 02ef 01bd 5c4d 83bb
00000200: 6b76 fe3c bbd9 b2bc 45fb ad3c 4e96 153c
00000210: b0ca 63bc 6fe5 21bc 9291 a9bc fdce 1cbd
00000220: 1440 a4bc 277c 223d 3736 d5bc 5830 8fbb
00000230: 9bb9 c6bc 5349 efba b589 07bd 735b fabc
00000240: 5e43 bc3c 5bfc 04bd b592 c53c f62a 0abd
00000250: 6dee 6c3c eb11 8e3c 1a4a 2f3a a8c8 273d
00000260: 3e89 183d c454 2b3d e920 083d 0ec8 1fbd
00000270: be45 17bb bd1e c8bb c726 16bc c617 f4bc
00000280: ddc2 a13c 182e 3eba 5041 29bc 28b6 93bb
00000290: 2733 2ebd 4aef 0db8 23ce 18bd 7b14 83bc
000002a0: 140d f3bb 6668 15bd 6c61 1f3d 4dcc e3bc
000002b0: 7d32 e1bc a643 02bd 6428 fd3c c1dd 8a3c
000002c0: 379f d13c d512 0dbd 008b 1dbd b4ac 2b3d
000002d0: 7e39 363c bea9 3cbc b0ab d63c c813 dd3b
000002e0: 5a67 fbbc a991 ad3c 55da b6bb 8114 8bbb
000002f0: 5f5d 04bd 56f4 debc 8db4 133d e028 6fbc
00000300: 6df7 113d 546d 45bb 247d a03c a322 523b
00000310: ca31 2d3d 99b0 2e3d cbce 52bc 5fbe 02bd
00000320: 0ae2 1fbd 7b9c e73a 8ccf 57bc b8d3 4ab9
00000330: afe5 e9ba 61a9 953c ea78 10bc 0a2d c33b
00000340: 7881 d1bb 6cf7 c6bc a50e 323a 8f86 c93c
00000350: a2e8 aabc a5eb ddbb f225 44bc 7dfb 1bbc
00000360: babf 293c c148 5f38 e488 143d f1a0 9d3c
00000370: 7eb1 d23c 990b fe3c e7d9 ac3b 4fdb 6bbc
00000380: 1657 f0ba b9bb 29bd a3b0 013d 1c1b 473c
00000390: 4aa6 67bb 09bd dd3c a53a eabb a25b a63c
000003a0: 300e ad3c c5bf c83c bf1d d4bc 5455 513c
000003b0: a446 f8bc 0b0b b1ba fbb0 05bc 0e7f ba3c
000003c0: 3347 1e3d 9281 91bc b0c7 0abc dd48 5cbb
000003d0: c98a cbbc 7f10 e63c faff 693b 4308 e73c
000003e0: e787 6a39 efc3 603c fb79 423c c68d 84bc
000003f0: 3695 7cbc 84d1 113d 1831 323c d437 a83b
